Preprocessing Datasets:
Human database contains 12000 normal pngs and 12000 one color pngs. 
For the input dataset to train the cnn we use only the one color dataset -> 12000 pictures.

Human Database: 24000 files
Human Annotations: 6000 files

Plain paths -> 12000 and One Color paths -> 6000


Configuration of the CNN:

----------------------------------------------------------------
        Layer (type)               Output Shape         Param #
================================================================
            Conv2d-1           [1, 8, 196, 196]             208
              ReLU-2           [1, 8, 196, 196]               0
         LayerNorm-3           [1, 8, 196, 196]          76,832
         MaxPool2d-4             [1, 8, 98, 98]               0
            Conv2d-5            [1, 16, 94, 94]           3,216
              ReLU-6            [1, 16, 94, 94]               0
         MaxPool2d-7            [1, 16, 47, 47]               0
           Flatten-8                 [1, 35344]               0
            Linear-9                   [1, 512]      18,096,640
             ReLU-10                   [1, 512]               0
           Linear-11                     [1, 8]           4,104
================================================================
Total params: 18,181,000
Trainable params: 18,181,000
Non-trainable params: 0
----------------------------------------------------------------
Input size (MB): 0.15
Forward/backward pass size (MB): 10.32
Params size (MB): 69.36
Estimated Total Size (MB): 79.83
----------------------------------------------------------------


Starting training:
…
